ONNXModelExample/myModel.onnx (onnx, 79602 bytes, 5 tensors)

conv2d_2/kernel:0 f4 [1, 64, 3, 3]
-0.020228423 0.0977636 0.041498706 -0.04568768 0.0071983784 -0.07142917 -0.06188828 -0.037113577
-0.048362743 -0.010108888 -0.030513212 -0.01996927 0.08414529 0.009687766 0.014736511 0.08280857
-0.012411796 0.10038324 0.040101856 0.009839691 0.015969194 0.028875738 -0.06340547 0.010896757
-0.025646746 -0.04310852 -0.08724929 -0.05256898 0.03334713 -0.074639305 -0.03710875 -0.048243225
-0.09946459 0.012080714 0.0026453212 0.060462028 0.01777941 -0.028350323 -0.040849436 0.038234398
0.045225337 -0.027178079 0.016464077 -0.09648923 0.09754489 -0.021866873 -0.027139448 -0.09314416
0.09042014 0.05125664 -0.08083832 -0.07941569 -0.03287231 -0.054483674 0.04370074 0.04111047
-0.034072056 -0.051086172 -0.002830416 -0.046543665 -0.07796695 -0.0067509636 -0.0058859736 0.0077736005
0.018103227 0.036306977 0.046656087 0.025168061 0.03971435 0.023748368 0.08266553 -0.09407455
-0.072639324 0.05090119 0.03657289 -0.04531207 0.07499246 0.03461644 0.031883404 -0.047391366
-0.020808883 -0.08065836 0.08307949 0.096160844 -0.07288715 0.091462046 0.054064214 -0.0337741
-0.06081752 0.07448247 0.09193769 -0.034422673 -0.027580202 0.08420509 -0.05634269 0.0040487796
-0.040227324 0.09054169 0.019567393 0.03103961 0.06871979 -0.0010462031 -0.05196947 -0.08349967
0.02461037 0.07751854 0.025183663 0.09139356 0.032563463 -0.06455866 -0.06361052 -0.001536116
0.07108563 -0.022685237 -0.050444264 0.031924576 0.09045607 -0.079609066 -0.099304356 0.05057721
-0.026328377 -0.09120076 -0.09211078 0.026689962 0.0006018281 -0.028423607 -0.06749503 -0.03202579
-0.029950768 0.024136022 0.029786378 0.030172154 0.06313644 0.000877738 0.021753706 -0.09588433
0.022463314 0.09385666 -0.089112386 0.051970527 0.042937055 -0.033426672 -0.062467054 0.051705554
0.06834878 -0.027900904 -0.04759494 0.09516996 0.00013227016 0.075405344 -0.08310801 0.06407343
0.020697601 -0.04243505 0.008098096 0.07648921 0.0018254817 -0.033793993 0.10083021 -0.002883248
-0.09687077 0.016920432 -0.03968378 0.029898107 -0.03419172 -0.08250103 0.0513701 0.025342897
-0.070111305 0.0036263987 0.06765668 -0.0498179 0.09607269 -0.052314196 -0.05900223 -0.028014436
-0.027492605 0.00983119 -0.042973787 -0.0508749 0.03185834 0.096095845 -0.037662722 -0.0102938935
0.033961594 0.044764355 0.0052431896 0.067670375 0.044068918 0.017296761 0.01318533 -0.031217009
-0.07105298 0.06792362 0.06536496 -0.076827854 -0.060205214 0.02398333 0.05312176 -0.0615021
0.0075376034 -0.035951093 -0.08259226 -0.10106023 0.015922107 -0.0752067 0.058899254 -0.02239088
0.02857411 -0.09738824 -0.058173195 0.041554242 -0.048890688 -0.01345291 0.06226611 0.05365503
-0.018746443 0.05462952 -0.05177367 -0.035469122 -0.018107258 0.0872298 -0.0039498284 -0.0445101
0.098566994 -0.058014825 0.07502 0.04124731 -0.033440143 0.09933208 0.07735798 0.09010619
0.08187874 0.034057215 0.051798254 0.016362451 0.003846705 -0.09349969 -0.0011637434 0.02411507
-0.049900096 0.03910306 -0.010531098 0.04644896 -0.029151596 -0.089704245 0.09037708 -0.040946115
0.073078945 0.05354844 0.059447363 0.06627722 -0.02527652 -0.07499091 0.030329391 -0.062296513
00000000: 14b6 a5bc 4838 c83d 8cfa 293d 0123 3bbd
00000010: 60e0 eb3b 7549 92bd 917e 7dbd 6804 18bd
00000020: 0318 46bd c09f 25bc d8f6 f9bc 9896 a3bc
00000030: 5e54 ac3d 70b9 1e3c 6871 713c 8a97 a93d
00000040: d85a 4bbc ba95 cd3d d841 243d a836 213c
00000050: d4d1 823c d08c ec3c bada 81bd 5088 323c
00000060: 2019 d2bc 8f92 30bd c1af b2bd 9252 57bd
00000070: 0097 083d 7edc 98bd 58ff 17bd b09a 45bd
00000080: 17b4 cbbd 30ee 453c 205d 2d3b 08a7 773d
00000090: 20a6 913c f03e e8bc bd51 27bd ac9b 1c3d
000000a0: 343e 393d 90a4 debc acdf 863c 259c c5bd
000000b0: 9ec5 c73d 2822 b3bc 8c53 debc 5ec2 bebd
000000c0: 322e b93d 7cf2 513d 908e a5bd b1a4 a2bd
000000d0: 1ea5 06bd 462a 5fbd 8cff 323d 7463 283d
000000e0: 248f 0bbd bc3f 51bd 807e 39bb 92a4 3ebd
000000f0: 23ad 9fbd 3037 ddbb 20df c0bb b0b9 fe3b
00000100: 384d 943c a0b6 143d 741a 3f3d 402d ce3c
00000110: 84ab 223d f08b c23c 8c4c a93d 28aa c0bd
00000120: edc3 94bd c47d 503d 74cd 153d 2699 39bd
00000130: a695 993d f8c9 0d3d 2c98 023d 731d 42bd
00000140: 6477 aabc 3630 a5bd 9425 aa3d faef c43d
00000150: dc45 95bd 7450 bb3d 7072 5d3d b656 0abd
00000160: cb1b 79bd 448a 983d d449 bc3d cafe 0cbd
00000170: e0ef e1bc b873 ac3d 98c7 66bd a0ab 843b
00000180: 68c5 24bd ec6d b93d cc4b a03c c846 fe3c
00000190: f6bc 8c3d c020 89ba f0dd 54bd e001 abbd
000001a0: b09b c93c 0ac2 9e3d f84d ce3c 8c2c bb3d
000001b0: 4461 053d 5537 84bd 3b46 82bd 8057 c9ba
000001c0: 5895 913d 64d6 b9bc a59e 4ebd 58c3 023d
000001d0: 0841 b93d 140a a3bd 1560 cbbd 0c2a 4f3d
000001e0: 9cae d7bc 77c7 babd 94a4 bcbd e8a4 da3c
000001f0: 00c4 1d3a a0d8 e8bc d63a 8abd 7a2d 03bd
00000200: 505b f5bc e8b8 c53c 9002 f43c 982b f73c
00000210: ae4d 813d 0018 663a d434 b23c 015f c4bd
00000220: fc04 b83c ec37 c03d 8e80 b6bd 0cdf 543d
00000230: c4de 2f3d 68ea 08bd 74dd 7fbd 34c9 533d
00000240: 72fa 8b3d 7090 e4bc e9f2 42bd 78e8 c23d
00000250: 00b2 0a39 1e6e 9a3d 8834 aabd ee38 833d
00000260: 048e a93c 60d0 2dbd e0ad 043c 60a6 9c3d
00000270: 0045 ef3a 926b 0abd 1280 ce3d e0f4 3cbb
00000280: 2f64 c6bd b89c 8a3c 768b 22bd e0ec f43c
00000290: 9e0c 0cbd 4df6 a8bd 7469 523d e89b cf3c
000002a0: 8496 8fbd e0a8 6d3b 968f 8a3d db0d 4cbd
000002b0: c2c1 c43d 6947 56bd 53ac 71bd 887e e5bc
000002c0: 2c38 e1bc 0013 213c 4805 30bd 3362 50bd
000002d0: e47d 023d e6cd c43d 3a44 1abd b8a7 28bc
000002e0: 501b 0b3d d45a 373d 10cf ab3b c496 8a3d
000002f0: 9c81 343d f0b1 8d3c 4807 583c d0ba ffbc
00000300: 3a84 91bd 8a1b 8b3d 10de 853d ec57 9dbd
00000310: be99 76bd b078 c43c 3496 593d a0e9 7bbd
00000320: 00fe f63b 7441 13bd 2126 a9bd aaf8 cebd
00000330: 146f 823c f805 9abd 5840 713d 146d b7bc
00000340: 4014 ea3c 7c73 c7bd 0447 6ebd c834 2a3d
00000350: 9a41 48bd 9869 5cbc c00a 7f3d 60c5 5b3d
00000360: 2492 99bc 34c3 5f3d a110 54bd 1248 11bd
00000370: ac55 94bc 8aa5 b23d 906d 81bb 3950 36bd
00000380: 7edd c93d f4a0 6dbd 16a4 993d f0f2 283d
00000390: 88f8 08bd 9e6e cb3d dc6d 9e3d 9889 b83d
000003a0: 0ab0 a73d 947f 0b3d 682a 543d 8c0a 863c
000003b0: 0019 7c3b c47c bfbd c088 98ba f88c c53c
000003c0: 0b64 4cbd 882a 203d a08a 2cbc 4441 3e3d
000003d0: 54cf eebc dcb6 b7bd 9e17 b93d 1db7 27bd
000003e0: 6aaa 953d 9c55 5b3d 147f 733d 5abc 873d
000003f0: b410 cfbc d694 99bd 5875 f83c a12a 7fbd

conv2d_1/kernel:0 f4 [64, 32, 3, 3]
-0.07902535 0.016391955 -0.06586169 0.0070516244 0.048920847 0.07623679 -0.07866548 0.051037736
0.059783466 0.017586231 0.033636272 0.026338756 -0.015265524 -0.076897725 0.034234643 -0.031217437
0.052939318 -0.03875681 -0.04730793 -0.012164019 0.014808357 -0.070424676 0.052782305 0.038744308
0.0571154 0.042141743 0.03855244 -0.0005520582 0.068126716 0.057266958 -0.07451507 -0.033334892
0.02545432 -0.03740154 0.049980782 -0.017798342 0.0819642 -0.07206029 -0.0028570667 -0.022380613
-0.035140913 0.0235639 0.037418447 0.0017575845 0.024588667 -0.049471997 0.028984942 0.0716408
0.04422096 -0.08215408 0.024103127 0.016688563 0.018228829 -0.033414602 0.022571526 -0.06166172
0.041274764 0.07727411 -0.0036403313 0.021031678 -0.059225105 0.05321277 -0.07715502 -0.035116874
-0.0525861 -0.075512394 -0.019190669 -0.008020662 -0.015389062 -0.050718408 0.07088021 0.0810935
0.081241824 0.014576197 -0.048808895 0.016371109 -0.041333478 -0.07257408 -0.013811089 -0.046298645
-0.032000184 -0.0683763 -0.07830006 -0.072560295 0.055914782 -0.053316377 0.0338341 0.07499083
0.005382441 0.07119272 0.002143763 0.067371584 0.0056396127 0.052323706 -0.017640255 0.0041561946
-0.04916346 0.03905523 -0.06773883 -0.048351586 -0.06460901 -0.02799229 -0.020142578 0.052497067
-0.03157147 -0.08158356 0.039670885 -0.055139087 0.024936795 0.020523824 -0.05615771 -0.021524727
0.069421135 0.029857598 0.015777908 0.026132502 0.06622151 0.059701808 -0.018938303 0.06918762
-0.051764272 -0.07858928 -0.08130103 -0.021538597 -0.045345545 0.0018167496 0.002292633 0.03218714
-0.007429205 -0.056505185 0.034212314 0.070742466 0.021804929 -0.018248737 -0.076143526 0.046788044
0.014056206 0.082906134 0.030693829 0.005421877 0.076460145 0.03246323 0.024916075 0.027260743
-0.047659576 -0.05765327 0.017767906 -0.07139039 -0.044663094 0.007382393 0.004668571 -0.031173766
0.011205852 0.05022929 -0.055365246 -0.0024877563 0.029194534 -0.02472955 -0.035263103 -0.05755524
0.065252446 0.034679376 -0.08022319 -0.03549528 -0.031333685 -0.0047455058 -0.058766842 0.045304038
0.0446809 0.07359154 -0.075030565 0.024041079 0.06939948 0.05816909 -0.07273205 -0.057684463
0.0032172576 0.07611749 0.07015119 -0.018790461 0.021893539 -0.02593875 0.005851805 0.010269679
-0.019771598 -0.0034550205 -0.044363044 0.06599126 0.078544445 0.045441754 -0.02858011 0.02318275
-0.07785392 0.061257802 0.033474542 0.07257772 0.05194781 0.06582502 -0.06348821 0.06848354
0.029858373 0.0033927932 0.06900922 -0.07199752 0.060433783 0.07400877 -0.03559073 -0.022697013
-0.07521938 -0.034945093 -0.07412362 -0.01202967 0.015480459 -0.06678741 -0.04891684 0.071059085
-0.07482916 -0.06752962 -0.048837923 0.027685367 0.0012738481 -0.051334262 -0.012072541 -0.07598784
0.028682508 -0.0027630702 0.016276777 -0.03607003 0.040881217 -0.032995127 0.073903225 0.07034812
0.009340547 -0.031026207 -0.060799718 0.07554496 0.06885419 -0.0111038685 -0.079815984 -0.0068040714
0.04195822 0.0738611 -0.047406536 -0.012699984 0.03355763 -0.02936862 0.02372092 -0.07239705
0.067406036 -0.08112256 -0.02476887 -0.03659002 -0.07554754 -0.050170124 -0.081410706 -0.019953273
00000000: 0bd8 a1bd 6c48 863c 7ee2 86bd 5011 e73b
00000010: 3a61 483d 0922 9c3d 5e1b a1bd f20c 513d
00000020: 82df 743d 0011 903c 30c6 093d 60c4 d73c
00000030: 401c 7abc 8e7c 9dbd a039 0c3d b6bb ffbc
00000040: e6d6 583d 76bf 1ebd f6c5 41bd 984b 47bc
00000050: c09e 723c d03a 90bd 4232 583d 5ab2 1e3d
00000060: d6f1 693d d29c 2c3d 2ae9 1d3d 00b8 10ba
00000070: 0586 8b3d c290 6a3d 5b9b 98bd 2b8a 08bd
00000080: 9485 d03c 5b32 19bd a6b8 4c3d d4cd 91bc
00000090: d9dc a73d 5894 93bd a03d 3bbb 8c57 b7bc
000000a0: ebef 0fbd 1409 c13c 1644 193d c05e e63a
000000b0: 2c6e c93c 26a3 4abd d471 ed3c 69b8 923d
000000c0: 0a21 353d 6640 a8bd ec73 c53c 74b6 883c
000000d0: a054 953c c0dd 08bd ece7 b83c 0091 7cbd
000000e0: ba0f 293d e341 9e3d a092 6ebb a04a ac3c
000000f0: 0696 72bd a2f5 593d 7303 9ebd b6d6 0fbd
00000100: 8664 57bd 3ea6 9abd c035 9dbc 1869 03bc
00000110: 6822 7cbc 1bbe 4fbd a529 913d 5914 a63d
00000120: 1d62 a63d 00d1 6e3c d6eb 47bd b41c 863c
00000130: 4b4d 29bd b8a1 94bd e847 62bc a6a3 3dbd
00000140: a012 03bd e008 8cbd c85b a0bd 7e9a 94bd
00000150: e606 653d 4662 5abd a095 0a3d cb94 993d
00000160: 305f b03b 7dcd 913d 607e 0c3b 1dfa 893d
00000170: 80cc b83b 6251 563d 4c82 90bc b030 883b
00000180: a05f 49bd 60f8 1f3d a8ba 8abd 500c 46bd
00000190: bb51 84bd 1650 e5bc 0c02 a5bc 2a07 573d
000001a0: 1651 01bd 4815 a7bd f07d 223d 86d9 61bd
000001b0: 4048 cc3c 9421 a83c a005 66bd a054 b0bc
000001c0: ab2c 8e3d ec97 f43c ac40 813c d413 d63c
000001d0: 259f 873d e289 743d 8024 9bbc 3db2 8d3d
000001e0: c606 54bd 6bf3 a0bd 2881 a6bd b671 b0bc
000001f0: 40bc 39bd 0020 ee3a 0040 163b aad6 033d
00000200: b070 f3bb fb71 67bd 3622 0c3d 6de1 903d
00000210: 40a0 b23c 607e 95bc 23f1 9bbd d2a4 3f3d
00000220: 004c 663c b1ca a93d a071 fb3c 00aa b13b
00000230: 2397 9c3d 2af8 043d cc1c cc3c ec51 df3c
00000240: b036 43bd d625 6cbd 008e 913c 2035 92bd
00000250: a6f0 36bd 00e8 f13b d0fa 983b 2060 ffbc
00000260: c098 373c 3abd 4d3d abc6 62bd a009 23bb
00000270: 6029 ef3c a095 cabc 0b70 10bd 0bbf 6bbd
00000280: 13a3 853d f60b 0e3d 0e4c a4bd 8063 11bd
00000290: c057 00bd 3080 9bbb 80b5 70bd ba90 393d
000002a0: 5203 373d 29b7 963d a0a9 99bd ccf1 c43c
000002b0: 5121 8e3d b642 6e3d 8bf4 94bd 8b46 6cbd
000002c0: a0d8 523b 7de3 9b3d 6dab 8f3d 74ee 99bc
000002d0: 145a b33c 807d d4bc 80c0 bf3b 2842 283c
000002e0: 0cf8 a1bc a06d 62bb 06b6 35bd 6d26 873d
000002f0: e9db a03d 2221 3a3d d620 eabc c0e9 bd3c
00000300: e071 9fbd 76e9 7a3d 9a1c 093d a1a3 943d
00000310: 3ac7 543d 45cf 863d 1b06 82bd 1941 8c3d
00000320: 8c99 f43c a059 5e3b b554 8d3d 7073 93bd
00000330: 6a89 773d e991 973d 96c7 11bd 16ef b9bc
00000340: 9e0c 9abd 9622 0fbd 20ce 97bd 1818 45bc
00000350: c0a1 7d3c d6c7 88bd 065d 48bd 6d87 913d
00000360: 0840 99bd f84c 8abd 460a 48bd 6ccc e23c
00000370: 40f7 a63a e043 52bd e8cb 45bc 839f 9bbd
00000380: 94f7 ea3c a014 35bb e056 853c 2bbe 13bd
00000390: 1073 273d e625 07bd 935a 973d ad12 903d
000003a0: 1809 193c ac2a febc 2009 79bd 51b7 9a3d
000003b0: 6d03 8d3d 00ed 35bc 9076 a3bd b0f4 debb
000003c0: 62dc 2b3d 7d44 973d 5b2d 42bd 9813 50bc
000003d0: ba73 093d 7696 f0bc 6052 c23c e844 94bd
000003e0: 2d0c 8a3d 9623 a6bd 16e8 cabc 6bdf 15bd
000003f0: abb8 9abd 307f 4dbd a8ba a6bd 0c75 a3bc

conv2d_1/bias:0 f4 [64]
0.0 0.0 0.0 0.0 0.0 0.0 0.0 0.0
0.0 0.0 0.0 0.0 0.0 0.0 0.0 0.0
0.0 0.0 0.0 0.0 0.0 0.0 0.0 0.0
0.0 0.0 0.0 0.0 0.0 0.0 0.0 0.0
0.0 0.0 0.0 0.0 0.0 0.0 0.0 0.0
0.0 0.0 0.0 0.0 0.0 0.0 0.0 0.0
0.0 0.0 0.0 0.0 0.0 0.0 0.0 0.0
0.0 0.0 0.0 0.0 0.0 0.0 0.0 0.0
00000000: 0000 0000 0000 0000 0000 0000 0000 0000
00000010: 0000 0000 0000 0000 0000 0000 0000 0000
00000020: 0000 0000 0000 0000 0000 0000 0000 0000
00000030: 0000 0000 0000 0000 0000 0000 0000 0000
00000040: 0000 0000 0000 0000 0000 0000 0000 0000
00000050: 0000 0000 0000 0000 0000 0000 0000 0000
00000060: 0000 0000 0000 0000 0000 0000 0000 0000
00000070: 0000 0000 0000 0000 0000 0000 0000 0000
00000080: 0000 0000 0000 0000 0000 0000 0000 0000
00000090: 0000 0000 0000 0000 0000 0000 0000 0000
000000a0: 0000 0000 0000 0000 0000 0000 0000 0000
000000b0: 0000 0000 0000 0000 0000 0000 0000 0000
000000c0: 0000 0000 0000 0000 0000 0000 0000 0000
000000d0: 0000 0000 0000 0000 0000 0000 0000 0000
000000e0: 0000 0000 0000 0000 0000 0000 0000 0000
000000f0: 0000 0000 0000 0000 0000 0000 0000 0000

conv2d/kernel:0 f4 [32, 1, 3, 3]
-0.037808344 -0.06070362 -0.001886338 0.11020236 0.020861492 -0.1259906 0.13812588 -0.06256735
0.0033376962 0.027731374 -0.09859363 0.061812073 0.11427371 0.13222088 0.14003898 -0.015310168
-0.11588065 -0.11220577 0.07268849 -0.12510268 0.06105432 0.028978154 0.10215475 -0.018151924
-0.0921018 0.09784137 -0.023313172 -0.061416373 -0.08984375 0.028998613 0.018122166 -0.040302724
0.1320966 0.11178027 0.10655628 0.13518651 0.041684657 0.13493778 -0.0065709203 0.07138474
0.093180805 -0.13448626 -0.06652441 0.12735908 -0.027564608 -0.030144721 -0.04265718 0.018602625
0.07433124 0.010012463 -0.02893725 -0.062117264 -0.03642825 0.06250103 0.07704657 0.13831054
0.009875715 -0.012565017 0.14004542 0.043856293 0.10225177 -0.08443357 0.007332504 0.036859155
-0.03172584 -0.025240108 -0.060179785 -0.067687765 0.061600238 0.051675826 -0.11426371 0.041636422
0.058351263 -0.09796052 0.082712635 0.10868053 0.009130701 -0.078912504 -0.12827122 -0.12658088
-0.090178795 0.0126140565 0.046375304 0.027389169 0.10714087 0.084289685 0.038404793 -0.005589485
0.062246338 -0.039865546 -0.10634255 0.13510816 0.0055384487 -0.028740838 0.089218155 -0.12927893
-0.12874876 0.13810508 -0.038752377 0.111687675 -0.119810805 0.048384964 -0.13132684 0.007869318
0.07883121 -0.056132793 0.049891964 0.13514481 -0.09329799 -0.11045176 -0.136411 -0.015417561
0.061779648 -0.13988885 0.00077211857 -0.047661364 -0.0054978877 0.10783678 -0.016362876 -0.12484141
-0.025361426 -0.013538167 0.01656583 0.0789894 -0.08098868 0.038831845 0.12815203 -0.08527336
0.115432516 0.09708904 -0.06217192 -0.1354516 0.042057246 0.045024455 -0.024340428 0.11206682
-0.019746631 -0.08003787 0.035125285 0.06435007 -0.01950308 -0.015171468 -0.038474366 0.10068871
-0.002784595 0.029039279 0.111285076 0.12040694 0.124722466 -0.11948179 -0.01457572 0.10096738
-0.055065505 0.11054857 -0.10061359 0.08104792 -0.020964645 -0.022105463 -0.019568548 0.111529306
-0.0042276084 0.042830825 0.027063519 -0.031585746 -0.14103183 0.11902098 -0.13276982 -0.10037583
0.06699839 0.016303942 -0.13413058 -0.0864174 0.0035372674 -0.11362063 0.056752995 -0.11622694
-0.006811559 0.1314296 -0.13204125 -0.056164138 -0.034261562 -0.09904938 0.027840048 0.09128718
-0.11852237 0.08632651 -0.11976651 0.04815188 0.08539078 0.120370016 0.038520664 -0.029448912
-0.012853235 -0.023359701 -0.056910537 0.12864079 -0.023492672 -0.12009644 0.03539516 -0.050394006
0.07464981 0.10086049 0.0684627 -0.08646596 0.041866526 0.00829196 -0.08515666 0.1289811
-0.055455722 -0.08486153 0.03399782 -0.004664153 0.028593361 -0.06607107 -0.067629345 0.12574522
-0.09407231 0.01387693 -0.10440494 -0.112854816 0.0070857406 -0.13346869 -0.010085449 -0.13314737
0.010265052 0.042125463 -0.05117724 -0.08881178 0.04095523 0.11743875 0.06450306 -0.0049298257
0.009520248 -0.09506843 0.12440546 0.08555679 0.05243951 0.026210874 -0.115401685 0.08318943
-0.08311101 -0.08942687 0.05716625 -0.08617076 0.10994513 -0.085425824 0.10525982 0.14078529
-0.13062984 -0.10208897 -0.11371373 0.0021097958 0.010043636 0.0854183 0.09559561 0.13245447
00000000: ecdc 1abd 5ca4 78bd 003f f7ba c6b1 e13d
00000010: b8e5 aa3c ae03 01be df70 0d3e 5023 80bd
00000020: 40bd 5a3b e82c e33c 75eb c9bd a82e 7d3d
00000030: 5608 ea3d e964 073e 6166 0f3e 80d7 7abc
00000040: d652 edbd 24cc e5bd b4dd 943d eb1a 00be
00000050: 1814 7a3d 9863 ed3c 8236 d13d 58b3 94bc
00000060: de9f bcbd 0e61 c83d 44fb bebc bc8f 7bbd
00000070: 0000 b8bd 808e ed3c f074 943c 7814 25bd
00000080: 5544 073e 0eed e43d 2e3a da3d 556e 0a3e
00000090: 88bd 2a3d 212d 0a3e e050 d7bb 2a32 923d
000000a0: 94d5 be3d c4b6 09be f33d 88bd 6b6a 023e
000000b0: 2ccf e1bc 10f2 f6bc 4cb9 2ebd 8864 983c
000000c0: fa3a 983d 500b 243c d00d edbc ac6e 7ebd
000000d0: ca35 15bd 8a00 803d 98ca 9d3d 47a1 0d3e
000000e0: c0cd 213c 80dd 4dbc 1168 0f3e a8a2 333d
000000f0: 6069 d13d 82eb acbd 8045 f03b a0f9 163d
00000100: f4f2 01bd 58c4 cebc 147f 76bd e29f 8abd
00000110: 8850 7c3d 08aa 533d 1803 eabd f48a 2a3d
00000120: bc01 6f3d 869f c8bd 3e65 a93d e693 de3d
00000130: f098 153c e19c a1bd 8859 03be 6b9e 01be
00000140: a9af b8bd 30ab 4e3c 08f4 3d3d 405f e03c
00000150: ac6c db3d 12a0 ac3d 584e 1d3d 0028 b7bb
00000160: 04f6 7e3d 0e4a 23bd 1fca d9bd cb59 0a3e
00000170: e07b b53b e871 ebbc 02b8 b63d b261 04be
00000180: b7d6 03be 6b6b 0d3e d0ba 1ebd 82bc e43d
00000190: 5e5f f5bd 502f 463d 8b7a 06be 50ee 003c
000001a0: 4272 a13d 80eb 65bd 845b 4c3d 6763 0a3e
000001b0: 0413 bfbd 8834 e2bd 53af 0bbe f099 7cbc
000001c0: a80c 7d3d 063f 0fbe 0068 4a3a 9038 43bd
000001d0: a027 b4bb 88d9 dc3d 700b 86bc daac ffbd
000001e0: c4c2 cfbc 30cf 5dbc 10b5 873c 32c5 a13d
000001f0: 65dd a5bd 240e 1f3d 493a 033e cda3 aebd
00000200: e267 ec3d 9ed6 c63d fca7 7ebd d3b3 0abe
00000210: 3844 2c3d 906b 383d 9465 c7bc 4a83 e53d
00000220: b0c3 a1bc e5ea a3bd 88df 0f3d f8c9 833d
00000230: ecc4 9fbc c091 78bc 4c97 1dbd e235 ce3d
00000240: c07d 36bb c8e3 ed3c 6ee9 e33d ea97 f63d
00000250: 7e6e ff3d deb2 f4bd 00cf 6ebc fcc7 ce3d
00000260: 5e8c 61bd 4a67 e23d 7f0e cebd 74fc a53d
00000270: 0cbe abbc 8416 b5bc 384e a0bc 7a69 e43d
00000280: c087 8abb 606f 2f3d 50b4 dd3c 0e60 01bd
00000290: a66a 10be 46c1 f33d d0f4 07be d891 cdbd
000002a0: 7436 893d d88f 853c 8759 09be 9bfb b0bd
000002b0: 80d1 673b efb1 e8bd d475 683d 6408 eebd
000002c0: 8033 dfbb 7b95 063e d235 07be 5e0c 66bd
000002d0: da55 0cbd 67da cabd d010 e43c c6f4 ba3d
000002e0: dbbb f2bd f4cb b03d 2548 f5bd e83a 453d
000002f0: 5ce1 ae3d 8e84 f63d d8c7 1d3d d83e f1bc
00000300: 6096 52bc d85c bfbc 061b 69bd 69ba 033e
00000310: b473 c0bc 1ff5 f5bd 84fa 103d f269 4ebd
00000320: 00e2 983d f28f ce3d 2c36 8c3d 1115 b1bd
00000330: 3c7c 2b3d 00db 073c 9d66 aebd 9f13 043e
00000340: 8a25 63bd e2cb adbd 4c41 0b3d c0d5 98bb
00000350: a03c ea3c 4550 87bd 4181 8abd 5bc3 003e
00000360: fca8 c0bd 105c 633c 42d2 d5bd 6d20 e7bd
00000370: 802f e83b 04ac 08be 703d 25bc c957 08be
00000380: c02e 283c c08b 2c3d 3a9f 51bd f3e2 b5bd
00000390: acc0 273d ba83 f03d 2e1a 843d 608a a1bb
000003a0: d0fa 1b3c 3db3 c2bd 4ac8 fe3d 6638 af3d
000003b0: d0ca 563d 30b8 d63c b857 ecbd 385f aa3d
000003c0: 1b36 aabd 6f25 b7bd 2827 6a3d 4c7a b0bd
000003d0: ea2a e13d bcf3 aebd 7692 d73d 052a 103e
000003e0: d4c3 05be 0614 d1bd bee2 e8bd 8044 0a3b
000003f0: 108e 243c caef ae3d a2c7 c33d 25a2 073e

conv2d/bias:0 f4 [32]
0.0 0.0 0.0 0.0 0.0 0.0 0.0 0.0
0.0 0.0 0.0 0.0 0.0 0.0 0.0 0.0
0.0 0.0 0.0 0.0 0.0 0.0 0.0 0.0
0.0 0.0 0.0 0.0 0.0 0.0 0.0 0.0
00000000: 0000 0000 0000 0000 0000 0000 0000 0000
00000010: 0000 0000 0000 0000 0000 0000 0000 0000
00000020: 0000 0000 0000 0000 0000 0000 0000 0000
00000030: 0000 0000 0000 0000 0000 0000 0000 0000
00000040: 0000 0000 0000 0000 0000 0000 0000 0000
00000050: 0000 0000 0000 0000 0000 0000 0000 0000
00000060: 0000 0000 0000 0000 0000 0000 0000 0000
00000070: 0000 0000 0000 0000 0000 0000 0000 0000
